cjlee/old_files/model.pth (torch, 761470 bytes, 5 tensors)

weight f4 [300, 30]
0	0xbeaaf5ce	-0.3339066
1	0xbdc051a0	-0.09390569
2	0x3e3440dc	0.17602867
3	0x3dfa40db	0.122194014
4	0xbe28ca9c	-0.1648354
5	0xbd72d8e7	-0.059288885
6	0xbc62c961	-0.013841958
7	0x3cbf88eb	0.023380717
8	0x3ded601c	0.11590597
9	0xbd74cd9c	-0.059766397
10	0x3e079f82	0.13244441
11	0x3d9bbe4f	0.07604658
12	0xbd1654e2	-0.036702044
13	0x3efabf49	0.48974064
14	0x3ea73c32	0.32663113
15	0x3e69c76f	0.22829984
16	0x3d6527a4	0.055946007
17	0xbe26cf20	-0.1628995
18	0xbe73d12d	-0.23810263
19	0x3b384a1d	0.0028120347
20	0x3ee9394b	0.45551524
21	0x3ca07337	0.019586189
22	0x3d6998d9	0.057030533
23	0xbc8262bb	-0.015916219
24	0xbe1976f1	-0.14986779
25	0xbc910bde	-0.017705854
26	0x3ddd7e6a	0.10815127
27	0xbd8a37b2	-0.06748904
28	0x3db035d7	0.08604019
29	0xbe51525d	-0.20441575
30	0xbfcfddb0	-1.6239529
31	0xbf0fcecb	-0.56174916
32	0x3e599adc	0.2125048
33	0x3de32a13	0.110920094
34	0x3e455e51	0.1927426
35	0x3ec9e13f	0.39429662
36	0xbc8702c2	-0.016480807
37	0x3c8c0c87	0.017095817
38	0x3e424f83	0.18975644
39	0x3dca90c5	0.09890894
40	0xbde6a063	-0.1126106
41	0xbe5659a1	-0.20932628
42	0x3d27b0f7	0.04094025
43	0xbcb140b2	-0.021637294
44	0x3dce4d5c	0.10073349
45	0xbd24f31b	-0.040270906
46	0x3ddf311f	0.10898041
47	0xbe822ad1	-0.2542329
48	0xbd94d6a7	-0.07267504
49	0x3c06b558	0.008221947
50	0x3f36f06a	0.7146059
51	0x3ad590b8	0.001629374
52	0x3e930999	0.2871826
53	0x3d6d7cca	0.057980336
54	0x3ce92a7e	0.028462645
55	0x3ca2edba	0.019888747
56	0x3ec78437	0.3896806
57	0xbeb277e7	-0.34857103
58	0x3eb7f03e	0.35925478
59	0x3eb5dbfb	0.35519394
60	0xbe33a6a7	-0.17544042
61	0xbdd18fb5	-0.10232488
62	0x3e81534f	0.25258872
63	0x3d9a3e9a	0.075314716
64	0x3e84c43b	0.25930962
65	0x3d1b00d3	0.037842583
66	0x3c54ddea	0.012992362
67	0x3b65e18d	0.0035077066
68	0x3dfe338c	0.124121755
69	0xbd8e33bd	-0.06943462
70	0xbc2e64fc	-0.010644194
71	0xbd9cb2fd	-0.07651327
72	0xbe24dfba	-0.1610097
73	0xbceb3577	-0.028712017
74	0x3e271fab	0.16320674
75	0x3e39e2f3	0.1815298
76	0x3da842f5	0.08215896
77	0x3e4461d4	0.19177943
78	0x3d3f9996	0.04677733
79	0x3d6273cd	0.055286217
80	0x3f4b8b83	0.79509753
81	0xbbf03441	-0.007330448
82	0xbdc0b6c8	-0.09409863
83	0xbd98ba4a	-0.07457407
84	0xbd3c87c4	-0.046027914
85	0xbc27df77	-0.010246149
86	0x3d4c8341	0.04992986
87	0x3b5927eb	0.0033135365
88	0xbdc5eea1	-0.096646555
89	0xbd2ccb3c	-0.042186007
90	0xbf8f0657	-1.117381
91	0xbea734ab	-0.3265737
92	0x3f181a05	0.594147
93	0x3ef6cebb	0.48204598
94	0x3d58c2d1	0.052920166
95	0x3e284193	0.16431265
96	0x3e44477b	0.19167893
97	0x3dc8f7c2	0.09812881
98	0x3e6dfb97	0.23240505
99	0x3e10672d	0.14101858
100	0x3d8c3c3e	0.06847428
101	0xbd83d65f	-0.064373724
102	0xbe5fcd1f	-0.21855591
103	0x3d85660d	0.06513605
104	0x3e433f05	0.19067009
105	0x3ebbba35	0.36665502
106	0x3e8e884b	0.27838358
107	0x3e41849c	0.18898243
108	0xbc349081	-0.011020781
109	0xba1cb126	-0.0005977325
110	0x3f7bb76d	0.9832676
111	0xbdaaec43	-0.083458446
112	0x3e00289f	0.12515496
113	0x3e3c9469	0.18415989
114	0xbd1a3431	-0.03764743
115	0x3c31d8c5	0.010854905
116	0x3e9e7446	0.30948085
117	0xbec628a2	-0.38702875
118	0x3dd1f11e	0.102510676
119	0xbd917680	-0.0710268
120	0xbe90911d	-0.28235713
121	0xbd21a04a	-0.039459504
122	0x3e56b34d	0.20966835
123	0x3d0543d0	0.032535374
124	0x3df772f1	0.1208247
125	0x3d8b09e1	0.067889936
126	0xbb9ddcb4	-0.0048175696
127	0xbdc01b0f	-0.09380161
128	0x3de05c0a	0.10955055
129	0xbbad854a	-0.0052954303
130	0xbdb42c32	-0.08797492
131	0xbd11e9d7	-0.035623398
132	0xbce61b4b	-0.028089186
133	0xbd6fa73b	-0.058509093
134	0x3ee45079	0.44592646
135	0x3e8abe11	0.27098134
136	0x3d632302	0.055453308
137	0xbdac0270	-0.083989024
138	0xbd714f56	-0.05891355
139	0x3a37a9f6	0.0007006222
140	0x3f2abc4c	0.6669357
141	0xbd15ed18	-0.036603063
142	0xbda73f78	-0.081664026
143	0xbe382538	-0.17982948
144	0xbd5233ef	-0.05131906
145	0xbd6deaa7	-0.05808511
146	0x3d85cd2a	0.065332726
147	0x3d417f6e	0.047240667
148	0xbdfb1014	-0.12258926
149	0xbc394ded	-0.011310083
150	0xbf080703	-0.531357
151	0xbe4f38f7	-0.20236574
152	0x3ebafecd	0.36522523
153	0x3e5b7110	0.21429849
154	0xbe43c808	-0.19119275
155	0x3dfb646c	0.12275013
156	0xbe1f2ad6	-0.15543684
157	0xbe8b5d42	-0.27219588
158	0x3c0c6e31	0.008571194
159	0x3e033cfe	0.12816235
160	0xbcd0ac46	-0.025472771
161	0xbdef4b9b	-0.116843425
162	0xbd332e42	-0.043745287
163	0x3c853d2e	0.016264524
164	0x3ec3e252	0.38258606
165	0x3db06c25	0.08614377
166	0xbe5024d4	-0.20326549
167	0xbdbd2d47	-0.092371516
168	0x3dc2ba0d	0.095081426
169	0x3c81bbe8	0.015836671
170	0x3f42a73f	0.7603645
171	0xbe8eb8ee	-0.27875465
172	0xbe259894	-0.16171485
173	0x3d46b9e0	0.048517108
174	0x3d89dab4	0.067311674
175	0x3d59ed5f	0.05320489
176	0x3da794a6	0.08182649
177	0x3da2ebad	0.07955108
178	0xbe8d32f7	-0.27577946
179	0xbddd80a9	-0.108155556
180	0x3dda85fc	0.10670087
181	0xbc42e26e	-0.011894805
182	0x3ec9a696	0.39384907
183	0x3de670f7	0.11252015
184	0x3e849592	0.25895363
185	0x3e413eab	0.18871562
186	0x3d5b2cc9	0.053509507
187	0x3dbad624	0.09122875
188	0x3f1a4824	0.6026633
189	0x3da9f243	0.08298161
190	0xbc6f5d65	-0.014609669
191	0xbd10dfbc	-0.03536962
192	0xbd9e1c80	-0.0772028
193	0x3ced5fc2	0.028976325
194	0x3f1f3a4e	0.6219834
195	0x3f052c92	0.52021134
196	0xbdf70ec0	-0.1206336
197	0xbd5aa38e	-0.053378634
198	0x3d3e4366	0.046450995
199	0x3cd1592c	0.025555216
200	0x3f9d7817	1.2302274
201	0xbd9e2155	-0.07721201
202	0x3dc2483a	0.094864324
203	0xbe09bed7	-0.13451706
204	0xbf77b363	-0.967581
205	0xbf28b724	-0.6590445
206	0x3e95c1ab	0.2924932
207	0x3dd4d4f1	0.10392178
208	0x3e9e3931	0.3090301
209	0xbdea29b7	-0.11433738
210	0xbf2bf034	-0.67163396
211	0x3d014e23	0.031568658
212	0x3ed60679	0.41801813
213	0x3e572669	0.21010746
214	0xbe8da43d	-0.27664366
215	0xbe9f1110	-0.31067705
216	0x3ec0baa9	0.3764241
217	0x3c81a761	0.015826883
218	0x3e11a3c5	0.1422263
219	0xbe91b54d	-0.28458634
220	0xbd734271	-0.059389535
221	0x3e591091	0.21197726
222	0xbeda0f25	-0.4258968
223	0x3e1dea18	0.15421331
224	0x3e82abdf	0.25521752
225	0x3e3bc441	0.18336584
226	0x3ddd845e	0.10816263
227	0x3e31b32b	0.17353503
228	0x3e014a21	0.12625934
229	0xbe641132	-0.22272184
230	0x3f2b478a	0.66906035
231	0x3db7bffa	0.089721635
232	0xbe7afa38	-0.24509513
233	0xbdc437f5	-0.095809855
234	0xbdf8e9e7	-0.12153988
235	0x3d03ccf9	0.0321779
236	0x3e61fbb4	0.22068673
237	0xbf048dff	-0.5177917
238	0xbec007ad	-0.37505856
239	0xbe61fb52	-0.22068527
240	0xbec8ec84	-0.39242947
241	0xbce0f3f8	-0.027460083
242	0x3cafa146	0.021439206
243	0x3d7b2c91	0.0613218
244	0xbe5b1a26	-0.21396694
245	0x3d51d184	0.0512252
246	0xbe87a0e5	-0.2648994
247	0xbde73f92	-0.11291422
248	0x3e11b2cf	0.14228366
249	0x3ca3f280	0.020013094
250	0xbd0b19d1	-0.033960167
251	0x3da2e801	0.079544075
252	0xbe272310	-0.16321969
253	0xbcb1471b	-0.021640351
254	0x3e2fb818	0.1716007
255	0x3e646cc8	0.22307122

weight f4 [300, 300]
0	0xbdcd8a87	-0.100361876
1	0x3d7cb1be	0.061692946
2	0x3dc43f7c	0.09582421
3	0x3d66708a	0.05625967
4	0xbd5b3ab5	-0.053522784
5	0xbcbbef30	-0.022941202
6	0xbe35f053	-0.17767458
7	0xbdb9e541	-0.0907693
8	0x3dad4f12	0.08462347
9	0xbd71bbf7	-0.059017148
10	0xbe2d8d17	-0.16948353
11	0x3cb1cf3f	0.021705268
12	0xbdf52bb2	-0.11971225
13	0xbced7c8b	-0.02899005
14	0xbd7f16b4	-0.06227751
15	0xbd43d428	-0.04780975
16	0xbd4918b0	-0.04909581
17	0x3ddffbea	0.10936721
18	0xbd6f1f4e	-0.058379464
19	0xbe14e89c	-0.14541858
20	0xbdde2c09	-0.10848243
21	0x3c8771be	0.016533729
22	0xbbbbcda3	-0.005731301
23	0x3cc57c02	0.024106983
24	0xbe3de518	-0.18544424
25	0x3d8abd37	0.06774371
26	0x3d6d1506	0.057881378
27	0x3d68cc4b	0.056835454
28	0x3cac430e	0.021028068
29	0xbe2b9ba2	-0.16758588
30	0x3e0aabf9	0.13542165
31	0x3e4c0f51	0.19927718
32	0xbe17610b	-0.14783113
33	0x3cf7f128	0.03026636
34	0x3dfe7421	0.124244936
35	0x3dc5a30a	0.09650238
36	0x3b47bb9d	0.0030476816
37	0x3d719556	0.05898031
38	0xbcadd806	-0.021221172
39	0xbd3c578f	-0.04598194
40	0x3dd604d7	0.10450142
41	0x3b8b2380	0.0042461753
42	0xbe158b65	-0.14603956
43	0xbcfcd050	-0.03086105
44	0xbc356e11	-0.011073605
45	0x3cac311f	0.021019517
46	0xbd65a0a4	-0.056061402
47	0xbcd80661	-0.02637023
48	0x3a9d9724	0.0012023193
49	0xbc0c1f96	-0.008552453
50	0x3c4e9400	0.012608528
51	0xbe17b553	-0.14815263
52	0x3c94d40c	0.018167518
53	0xbd46812e	-0.04846304
54	0xbddc72c1	-0.10764075
55	0xbe315f26	-0.17321452
56	0x3cba4850	0.02273956
57	0x3e1662f3	0.14686184
58	0xbe4b7651	-0.19869353
59	0x3ddb4e14	0.107082516
60	0x3cd16792	0.025562081
61	0xbdf8168c	-0.121136755
62	0xbdd5e6ac	-0.10444388
63	0x3ca3d413	0.019998586
64	0x3dc68b6c	0.09694561
65	0x3e9d82df	0.3076391
66	0xbdeccfed	-0.11563096
67	0x3dc52aff	0.096273415
68	0xbcd412ac	-0.02588781
69	0xbd25397c	-0.040338024
70	0x3e10a50e	0.14125463
71	0xbdae52d3	-0.08511891
72	0xbe2b126a	-0.16706243
73	0xbcd5ddda	-0.026106764
74	0xbcb6735b	-0.022271803
75	0x3d4edf0f	0.050505694
76	0xbc42a7b5	-0.011880805
77	0xbce2d0d2	-0.027687464
78	0x3e2418e2	0.16025117
79	0xbc0c1cba	-0.008551771
80	0xbdcbf63b	-0.09959074
81	0xbd896f69	-0.06710703
82	0x3cf9fe39	0.03051673
83	0x3de10e78	0.10989088
84	0x3d3fac81	0.046795372
85	0xbbdd21b0	-0.0067484006
86	0x3e1c147d	0.1524219
87	0x3cf733fc	0.030176155
88	0x3cb17450	0.021661907
89	0x3e08778b	0.13326852
90	0xbcf30c5d	-0.029668981
91	0x3d3b66be	0.04575228
92	0xbdf69827	-0.120407395
93	0xbd909159	-0.07058973
94	0x3cff26b1	0.03114638
95	0xbd24e7f1	-0.04026026
96	0x3cfe6698	0.03105478
97	0xbba96cb4	-0.005170429
98	0xbc8f7014	-0.017509498
99	0xbd17c01d	-0.037048448
100	0xbd1a9307	-0.037737872
101	0xbd64efe8	-0.055892855
102	0xbdca803c	-0.0988774
103	0xbd958333	-0.07300415
104	0x3d1c80f8	0.03820893
105	0x3d226934	0.03965111
106	0xbd9c0075	-0.07617275
107	0xbcf9efc3	-0.030509835
108	0xbc0d130c	-0.008610498
109	0x3de610a0	0.1123364
110	0xbcaff50e	-0.021479156
111	0x3d300ef7	0.04298302
112	0x3dcceb4a	0.10005815
113	0x3dd2c4a9	0.10291416
114	0xbdd7d9b6	-0.10539572
115	0xbcedb6d0	-0.029017836
116	0xbe355002	-0.17706302
117	0xbddb2cc6	-0.10701899
118	0xbd15a6b4	-0.036535934
119	0x3e0dee5a	0.13860455
120	0x3d96a159	0.073549934
121	0xbd094084	-0.033508793
122	0x3c1b5f84	0.009483222
123	0x3df3aa4c	0.11897716
124	0xbd3b187e	-0.045677654
125	0x3e053523	0.13008551
126	0xbd6f694e	-0.058450036
127	0x3d19e42c	0.037571117
128	0x3d3a25c4	0.045446172
129	0x3e04f0d5	0.12982495
130	0x3c601b6d	0.013678414
131	0x3ce3998b	0.027783176
132	0xbdecaa5b	-0.1155593
133	0x3dceabdd	0.10091374
134	0xbdb4e62c	-0.08832964
135	0x3c946fa0	0.018119633
136	0x3c84a651	0.016192587
137	0xbde320f1	-0.110902674
138	0xbd3a563c	-0.045492396
139	0xbb4abfe2	-0.0030937125
140	0xbe10c717	-0.14138447
141	0xbd899945	-0.06718687
142	0x3de00d4a	0.10940035
143	0xbd2f1340	-0.042742968
144	0xbe043975	-0.12912543
145	0x3cd787d4	0.026309885
146	0xbe12bbb1	-0.14329411
147	0x3dc2d2d6	0.0951287
148	0x3dc98a64	0.09840849
149	0x3d2442b6	0.040102683
150	0xbe16ae70	-0.1471498
151	0xbcd27b23	-0.025693482
152	0x3d8022c7	0.06256633
153	0xbdda80d2	-0.10669102
154	0xbe0028b5	-0.12515529
155	0xbd4a2ad5	-0.049357254
156	0x3d15ac4f	0.03654128
157	0x3b0b361b	0.0021241966
158	0xbe5ac85b	-0.21365492
159	0xbbf74916	-0.0075465543
160	0x3cbd05bc	0.023074023
161	0xbe5b0c33	-0.21391372
162	0xbd3ccec1	-0.046095613
163	0xbd343baf	-0.04400223
164	0x3e132bd0	0.14372182
165	0x3c5d7a04	0.01351786
166	0xb9f5cb18	-0.00046881358
167	0xba16c563	-0.0005751459
168	0xbde82009	-0.11334235
169	0x3d8f0add	0.06984494
170	0xbda435d9	-0.08018083
171	0xbe0947a1	-0.1340623
172	0x3c4e056d	0.012574536
173	0xbd9e8fa0	-0.07742238
174	0x3c2629e9	0.010141828
175	0x3cb06770	0.021533698
176	0x3d863a92	0.0655414
177	0x3d0f6b8a	0.035014667
178	0xbe21ee30	-0.15813518
179	0xbdbcea81	-0.092244156
180	0x3d8389d8	0.06422776
181	0xbd58e07a	-0.052948453
182	0x3e016754	0.12637073
183	0x3de14995	0.11000363
184	0x3d66e257	0.0563682
185	0x3dec6f6e	0.11544691
186	0x3d005ca2	0.03133834
187	0x3d8d881a	0.06910725
188	0x3cf0c719	0.029391812
189	0xbcc83fc9	-0.024444478
190	0xbe0534bd	-0.130084
191	0x3e12457f	0.14284323
192	0xbda3193a	-0.07963796
193	0xbd616f52	-0.055037804
194	0x3c1aaa4c	0.009440016
195	0x3d3ed613	0.046590876
196	0xbdc1c0d4	-0.09460607
197	0x3ce9096b	0.028446874
198	0xbcbc3f46	-0.02297939
199	0xbc37ee47	-0.011226243
200	0x3d4a24fe	0.049351685
201	0x3d84eb44	0.06490186
202	0xbe0517ea	-0.12997404
203	0x3dee3be0	0.11632514
204	0x3d9226a2	0.07136275
205	0xbd5f013b	-0.054444533
206	0x3c28071f	0.010255604
207	0x3c702638	0.01465755
208	0x3d40d49a	0.047077753
209	0x3e5351b4	0.20636636
210	0xbd94d5f2	-0.07267369
211	0xbd35478f	-0.044257697
212	0x3d2c221e	0.042024724
213	0xbb8caaef	-0.004292838
214	0xbe065771	-0.13119294
215	0x3e0be75b	0.13662474
216	0x3d340b28	0.043955952
217	0xbd3ef07c	-0.046616063
218	0xbddef3c2	-0.10886337
219	0x3da1c183	0.078982376
220	0x3d9163e0	0.07099128
221	0xbda134c1	-0.0787139
222	0x3d67a3f5	0.056552846
223	0xbd4ac9c6	-0.049508832
224	0xbb361689	-0.0027784428
225	0xbe163e54	-0.14672214
226	0x3d7206c8	0.0590885
227	0x3cbfef57	0.023429556
228	0xbd6090e2	-0.05482567
229	0x3aa67aed	0.001270143
230	0xbc049492	-0.008092063
231	0xbe124186	-0.14282808
232	0x3e02d8e0	0.12778044
233	0xbda8db44	-0.082449466
234	0xbd4de1a4	-0.050264016
235	0xbd71aea6	-0.05900445
236	0xbc36cb44	-0.011156861
237	0x3d347e26	0.044065617
238	0x3d2f5524	0.042805806
239	0x3d4a0e00	0.049329758
240	0x3e5377a0	0.20651102
241	0x3d2d315e	0.04228341
242	0xbcfb9169	-0.030708985
243	0x3e79d3b5	0.24397166
244	0xbdf0faa1	-0.11766554
245	0xbda1a09c	-0.07891962
246	0x3e4d8485	0.20070083
247	0x3ccb2627	0.024798466
248	0x3d4d710f	0.05015665
249	0x3d76c573	0.060246896
250	0xbe27532b	-0.1634032
251	0x3d4de1d1	0.050264183
252	0x3d965a21	0.073414095
253	0x3d55e76a	0.052222647
254	0xbb26dd55	-0.0025461514
255	0x3de386cc	0.11109695

weight f4 [300, 300]
0	0xbd4f23f1	-0.050571386
1	0xbe1c579d	-0.15267797
2	0x3d85c04b	0.065308176
3	0x3cffba90	0.03121689
4	0xbee33e1c	-0.44383323
5	0xbe4de3fa	-0.20106497
6	0xbe793144	-0.243352
7	0xbcf7211e	-0.030167159
8	0xbe3b1a0b	-0.18271653
9	0xbd2fff5d	-0.042968143
10	0xbe9581a2	-0.29200464
11	0x3e0a7a84	0.13523299
12	0x3edd2410	0.43191576
13	0x3d2a1af0	0.041529596
14	0xbe9f7149	-0.31141117
15	0xbcf9ea99	-0.030507373
16	0xbd85ed86	-0.065394446
17	0xbe816cb9	-0.2527826
18	0x3ca2ff2a	0.019897062
19	0x3decf894	0.1157085
20	0x3e890d53	0.26767978
21	0xbdba7ee4	-0.09106234
22	0x3ceb056f	0.028689114
23	0xbdc1a1eb	-0.094547115
24	0xbd4998ae	-0.049217872
25	0x3e939c7e	0.28830332
26	0xbd3e9ad1	-0.046534363
27	0x3deb9794	0.115035206
28	0xbca77096	-0.020439427
29	0x3d259206	0.040422462
30	0xbdf0b004	-0.11752322
31	0xbdb0fb61	-0.08641697
32	0xbd02ae77	-0.031904664
33	0xbcc98fe1	-0.02460474
34	0xbd7b4faa	-0.06135527
35	0x3e1589d4	0.14603359
36	0x3d83bee2	0.064328924
37	0x3d1aa1df	0.03775203
38	0x3c1ed8ae	0.009695215
39	0xbd6f11da	-0.058366634
40	0x3e8944cf	0.2681031
41	0x3c8d456c	0.017245017
42	0xbcffc978	-0.031223997
43	0xbe82f58f	-0.2557797
44	0xbe8d78b8	-0.27631164
45	0x3e2c3da3	0.16820388
46	0x3da4870f	0.08033573
47	0x3e26340d	0.16230793
48	0x3dd6830f	0.10474216
49	0xbdbcc163	-0.09216573
50	0x3d11316d	0.035447527
51	0xbd443c6d	-0.04790919
52	0xbccdd50a	-0.025125999
53	0x3cb7f175	0.022454003
54	0xbd12b3f6	-0.035816155
55	0xbe812ac7	-0.2522795
56	0xbe4d8e7c	-0.20073885
57	0xbed3aded	-0.41343632
58	0xbe587b1d	-0.21140714
59	0x3dbf1540	0.09330225
60	0xbd1f61b0	-0.03891152
61	0xbe11a316	-0.14222369
62	0xbe9421c6	-0.28932017
63	0xbc7115cb	-0.0147146685
64	0xbdc5620b	-0.09637841
65	0xbd1ddf66	-0.038543127
66	0x3e7a18bb	0.24423496
67	0xbd2e0d7c	-0.04249333
68	0xbd72cd16	-0.059277616
69	0xbeaad48b	-0.33365282
70	0x3e81dd27	0.25364038
71	0x3e6abb46	0.22923002
72	0xbe495cd6	-0.1966432
73	0xbd550ec3	-0.05201603
74	0xbdf2d827	-0.11857634
75	0x3cd1e1f8	0.025620446
76	0x3ec7bfc0	0.3901348
77	0xbdae76be	-0.08518742
78	0xbdd3bd36	-0.103388235
79	0x3d60819d	0.05481111
80	0xbe26585e	-0.16244647
81	0xbe93bfe6	-0.28857344
82	0x3d835bca	0.06413992
83	0x3eb8fa14	0.36128294
84	0x3e4727d2	0.19448784
85	0x3e5fcab4	0.21854669
86	0xbe59c66b	-0.21267097
87	0xbeb70a8d	-0.35750237
88	0xbe2af74f	-0.16695903
89	0x3d896ebb	0.06710573
90	0x3ebf3b49	0.37349918
91	0x3e023d7f	0.12718771
92	0x3e37c200	0.17945099
93	0xbd94c454	-0.07264009
94	0x3e423bf5	0.18968184
95	0xbed30499	-0.41214445
96	0xbea22237	-0.3166673
97	0x3d972e0c	0.073818296
98	0xbe2494f0	-0.1607244
99	0x3d3a8de0	0.04554546
100	0xbda32094	-0.07965198
101	0xbce745be	-0.028231498
102	0x3daa52be	0.08316563
103	0xbd1b57a9	-0.037925396
104	0xbe93d51f	-0.28873536
105	0xbe3c07e5	-0.18362387
106	0x3d9044f8	0.07044405
107	0xbe10b5d0	-0.14131856
108	0xbd0e9e24	-0.034818783
109	0x3df05be2	0.11736275
110	0x3d83b3a7	0.0643075
111	0x3dd7c5b7	0.10535758
112	0x3e8bf507	0.2733538
113	0xbe6af117	-0.22943531
114	0xbdd9d558	-0.10636395
115	0xbe195381	-0.1497326
116	0xbc9a62d3	-0.018845951
117	0xbde095d5	-0.10966078
118	0x3ca65abb	0.020306936
119	0x3ddf2977	0.10896581
120	0x3ea84cb4	0.3287102
121	0xbd1605ef	-0.036626752
122	0xbeaa60f5	-0.33277097
123	0xbd9764c5	-0.07392267
124	0xbe541ad4	-0.20713359
125	0xbe04f4b3	-0.1298397
126	0xbcefb09b	-0.029259017
127	0xbc82a715	-0.015948812
128	0x3e3f93e8	0.18708766
129	0xbe50d0d0	-0.20392156
130	0x3e865ed4	0.26244223
131	0x3caffe52	0.021483574
132	0x3d3b9529	0.045796547
133	0xbea97c2d	-0.3310255
134	0xbe3a560a	-0.18196884
135	0x3edc766c	0.430591
136	0xbea7b5a6	-0.32755774
137	0x3eb6ccef	0.35703227
138	0x3dabdbb1	0.08391512
139	0x3e8e9c54	0.27853644
140	0xbeea4155	-0.4575297
141	0xbeadd847	-0.3395407
142	0x3d5033fd	0.05083083
143	0x3d9c6142	0.07635738
144	0x3ea41ee6	0.32054824
145	0xbd60d344	-0.05488898
146	0xbe9291fa	-0.28626996
147	0xbd7464e7	-0.05966654
148	0x3e67a5a5	0.22621782
149	0xbc3be16d	-0.01146732
150	0x3ea62683	0.32451257
151	0x3e1ef7fe	0.15524289
152	0x3e382d69	0.17986073
153	0xbe5b2329	-0.21400131
154	0xbe6ecc55	-0.23320134
155	0x3e59a873	0.21255665
156	0x3e62eaaa	0.2215983
157	0x3e0e6c99	0.13908614
158	0xbe8b6773	-0.27227363
159	0x3e534ab2	0.20633963
160	0xbd19a9a9	-0.037515316
161	0x3ba1a795	0.0049333074
162	0xbc5e25b8	-0.013558798
163	0x3e21b8bc	0.15793127
164	0x3e7271dd	0.23676248
165	0xbe47a95d	-0.194982
166	0x3e9bf357	0.3045909
167	0xbeaa76e6	-0.33293837
168	0xbe92cc1b	-0.28671345
169	0x3d1fdaad	0.039026905
170	0x3dc31dd4	0.09527174
171	0xbe8fff9d	-0.28124705
172	0xbe38b539	-0.18037881
173	0x3da8f186	0.08249192
174	0x3e009f95	0.12560876
175	0xbe4d3043	-0.20037942
176	0x3d9737e3	0.073837064
177	0xbd3745ed	-0.04474442
178	0xbd091002	-0.033462532
179	0xbd2401fc	-0.040040955
180	0xbeba61be	-0.36402696
181	0x3e338457	0.17530952
182	0xbcf00a33	-0.029301738
183	0x3e9363a9	0.28786972
184	0xbe400090	-0.18750215
185	0xbe164d2e	-0.14677879
186	0xbe94ae62	-0.29039294
187	0x3c191ac9	0.009344765
188	0xbef1ec62	-0.47250658
189	0x3e8adbd4	0.2712084
190	0xbeb9ffbd	-0.36327925
191	0x3de2b7ab	0.11070188
192	0x3db14f03	0.086576484
193	0x3dafa921	0.08577181
194	0xbe991125	-0.29895893
195	0xbde78e28	-0.11306411
196	0x3e894c9f	0.2681627
197	0x3d0ee49d	0.03488599
198	0xbe7f385b	-0.24923842
199	0x3e69203e	0.22766206
200	0xbd88fb47	-0.06688552
201	0x3d7efaeb	0.062251013
202	0x3e46d6c1	0.1941786
203	0x3e8255b7	0.2545602
204	0xbd709aa0	-0.058741212
205	0x3cdb5d70	0.026777953
206	0x3e46a445	0.19398601
207	0x3d42cc76	0.04755827
208	0xbe98c279	-0.2983587
209	0xbe760ab1	-0.24027516
210	0xbcd61977	-0.02613519
211	0x3ca99a68	0.02070351
212	0x3f08366e	0.53208053
213	0xbec26b6a	-0.37972575
214	0xbe56138d	-0.20905896
215	0x3e1f11ac	0.15534085
216	0xbcd75ea6	-0.02629025
217	0x3e14fc43	0.14549355
218	0x3dd862b2	0.105657
219	0x3d3b34ca	0.04570464
220	0x3c17c11c	0.009262349
221	0x3cd9a881	0.026569607
222	0xbe936550	-0.28788233
223	0x3ebfa9e2	0.37434298
224	0xbe264717	-0.16238056
225	0xbe2a6e79	-0.16643704
226	0xbdb4f3f6	-0.08835594
227	0x3c957e66	0.018248748
228	0x3e1661cf	0.14685749
229	0x3db41422	0.087929025
230	0xbdae6093	-0.08514514
231	0xbaa09fb9	-0.0012254632
232	0xbd108e7c	-0.035292134
233	0xbe114369	-0.14185871
234	0x3eb073ea	0.34463435
235	0xbe1f5f93	-0.15563802
236	0x3d165a56	0.036707245
237	0xbed5e540	-0.41776466
238	0xbd8c99c8	-0.06865269
239	0x3e81d8a4	0.25360596
240	0x3eb9a87d	0.3626136
241	0xbe0838c1	-0.133029
242	0xbe82cc1c	-0.25546348
243	0x3dcbb34d	0.09946308
244	0x3e7dd7c6	0.24789342
245	0xbe1b8d56	-0.15190634
246	0x3d8cd771	0.0687703
247	0x3e227d60	0.1586814
248	0xbe45057a	-0.1924037
249	0xbd638663	-0.055548083
250	0xbe7fb3a6	-0.24970874
251	0x3d92540a	0.071449354
252	0xbdc22a4a	-0.09480722
253	0x3d80f3d6	0.06296508
254	0xbc552484	-0.013009194
255	0xbe49ee93	-0.19719915

weight f4 [2, 300]
0	0xbd40ab26	-0.04703822
1	0x3cb99d14	0.022657908
2	0xbd8f792c	-0.070055336
3	0xbce33b8a	-0.027738351
4	0xbd983028	-0.0743106
5	0xbd125a23	-0.035730492
6	0x3cae6d25	0.021292279
7	0x3bdb7922	0.0066977898
8	0xbcb00a93	-0.021489417
9	0xbd126e25	-0.035749573
10	0x3bda6007	0.0066642794
11	0x3d855670	0.06510627
12	0xbdf3b15e	-0.118990645
13	0xbb6729f2	-0.0035272804
14	0xbcb58b2e	-0.022161093
15	0x3d12b2e3	0.03581513
16	0xbcca7deb	-0.024718245
17	0x3ca19217	0.019722981
18	0xbc94e111	-0.018173726
19	0xbd47ca81	-0.048777107
20	0xbd0ff0f0	-0.035141885
21	0x3c9d7e74	0.019225337
22	0xbc8ba3b1	-0.017045828
23	0xbc033687	-0.008008606
24	0x3c6ffb0b	0.014647256
25	0xbd048a7a	-0.032358624
26	0x3bf8544f	0.0075784097
27	0xbc7f3626	-0.015576875
28	0x3ce3194f	0.027722029
29	0x3d00f92b	0.031487625
30	0x3ca7a596	0.0204647
31	0x3d74eae1	0.05979431
32	0x3c69cabe	0.014269529
33	0xbc6491ca	-0.013950774
34	0x3c62b1e3	0.013836357
35	0xbcf1e487	-0.029527916
36	0xbd2098a9	-0.039208088
37	0xbc9fb30a	-0.019494552
38	0x3c9484b3	0.018129682
39	0xbcb68a0a	-0.022282619
40	0xbc788a8c	-0.015169751
41	0xbc2e45e8	-0.010636784
42	0xbcbb1c9a	-0.022840787
43	0xbd234d2d	-0.039868522
44	0x3c1ff754	0.009763557
45	0x3cdb49a7	0.026768519
46	0xbd1d7be4	-0.03844823
47	0x3c6472ff	0.013943433
48	0x3c3d610d	0.011558783
49	0xbc15e987	-0.009149916
50	0x3d94e52b	0.07270273
51	0xbd8fe992	-0.07026972
52	0xbd0adbcd	-0.033901025
53	0x38c41738	9.350333e-05
54	0xbc0505dc	-0.008119073
55	0x3d86307a	0.06552215
56	0xbcf7d45e	-0.030252632
57	0x3ce4c803	0.027927404
58	0xbcb1e069	-0.021713452
59	0x3cc13b48	0.023587838
60	0x3d191dd4	0.037381962
61	0x3d91f611	0.071270116
62	0xbd187508	-0.037220985
63	0xbc1e6548	-0.009667702
64	0x3be57bbb	0.007003275
65	0xbd7b8c78	-0.06141326
66	0xbcd03809	-0.025417345
67	0x3b4daafd	0.0031382435
68	0xbc9496a5	-0.01813824
69	0x3d0f27e8	0.034950167
70	0xbc2e6001	-0.010643006
71	0xbc845afc	-0.016156666
72	0x3c8b137b	0.016977062
73	0xbc392f0a	-0.011302719
74	0x3d711790	0.05886036
75	0xbcc9c8c5	-0.024631867
76	0xbd50e84b	-0.05100278
77	0xbbc05e67	-0.0058706286
78	0xbcf3ae63	-0.02974624
79	0xbbcb513a	-0.0062047513
80	0x3cdbff73	0.026855206
81	0x3cbfa474	0.023393847
82	0x3d42931a	0.04750357
83	0x3d39991d	0.045312036
84	0xbccdbfb2	-0.025115822
85	0xbc4e3d16	-0.012587806
86	0x3d0b6b2c	0.034037754
87	0x3c826a33	0.01591978
88	0xba894c9c	-0.0010475102
89	0xbd4d06e8	-0.050055414
90	0x3da1cf8f	0.07900917
91	0xbd26c16e	-0.040711813
92	0x3c620ba9	0.013796725
93	0x3cdac58e	0.02670553
94	0x3d4d7d21	0.05016816
95	0xbd1eb51f	-0.03874695
96	0xbd5968b4	-0.05307837
97	0xbd686aec	-0.056742594
98	0x3b55f609	0.003264787
99	0xbc2d3a02	-0.010572912
100	0xbccc707d	-0.024955982
101	0xbc8ba94d	-0.017048502
102	0xbcd185f6	-0.025576573
103	0xbcd5d9fb	-0.026104918
104	0x3d861e1e	0.06548713
105	0xbd60b4ed	-0.054860044
106	0x3c522e97	0.012828491
107	0xbcdfbaf8	-0.027310833
108	0xbbe402dd	-0.006958349
109	0xbd81daf9	-0.06340594
110	0xb9560f91	-0.0002041443
111	0xbc9e6c7a	-0.019338835
112	0x3b698ac8	0.0035635699
113	0x3dc4cd5b	0.09609481
114	0xbc41d14b	-0.0118296845
115	0x3cc4f1c9	0.024041073
116	0xbd2ea2f8	-0.042635888
117	0xbc3507e5	-0.0110492455
118	0xbb0a01f4	-0.0021058293
119	0xbcc62918	-0.024189517
120	0xbc93c5ae	-0.018038597
121	0xbd013e68	-0.031553656
122	0xbe374ed5	-0.17901166
123	0x3bf880f3	0.0075837313
124	0x3c0cdd48	0.008597679
125	0x3c52414f	0.012832954
126	0x3cb38706	0.02191497
127	0xbd29859c	-0.041387185
128	0xbd1cc737	-0.038275924
129	0x3d7b148c	0.061298892
130	0x3cbeb085	0.02327753
131	0xbd37e17a	-0.044892766
132	0xbc82c562	-0.01596326
133	0xbca12359	-0.019670175
134	0x3bb7e1e3	0.0056116446
135	0x3c658fae	0.014011307
136	0x3d75c076	0.059998
137	0xbbec5eb5	-0.0072134384
138	0xbcd301a0	-0.02575761
139	0x3ca89692	0.02057961
140	0xbcd8deb0	-0.026473373
141	0xbd575485	-0.05257084
142	0xbd8db0ad	-0.06918464
143	0xbca64a0a	-0.020298976
144	0xbd8645df	-0.065562956
145	0x3b5601c4	0.003265486
146	0x3bb4b22b	0.0055144033
147	0x3ce771d4	0.02825252
148	0xbdbe3a39	-0.09288449
149	0xbc5c01f1	-0.013428197
150	0xbd074e66	-0.03303375
151	0xbd963247	-0.073338084
152	0xbc32b5b2	-0.010907577
153	0xbd5ffee6	-0.05468645
154	0x3d157f00	0.03649807
155	0xbc21ea4a	-0.009882519
156	0xbd4cac5f	-0.049969073
157	0x3b91a793	0.004445025
158	0x3d826542	0.0636697
159	0x3b186278	0.0023252051
160	0xbd1bc0cb	-0.03802566
161	0xbc04ca14	-0.00810482
162	0x3bec8a37	0.007218625
163	0xbc8f7f7f	-0.01751685
164	0xbdd00152	-0.10156502
165	0xbd940fd1	-0.07229579
166	0x3be8a833	0.007100129
167	0xbca18ef7	-0.019721491
168	0x3d287cd0	0.041134655
169	0x3c602f8a	0.013683209
170	0xbc8d65be	-0.017260429
171	0xbad285b7	-0.0016061579
172	0xbcee0364	-0.029054351
173	0xbcd5452f	-0.026033966
174	0x3bb96e76	0.00565892
175	0x3d323b08	0.043513328
176	0xbbbef992	-0.005828091
177	0xbb5140f4	-0.0031929584
178	0xbced2bfb	-0.028951636
179	0x3cc2a184	0.023758657
180	0x3ae58e6d	0.001751376
181	0x3c52b7f1	0.012861238
182	0xbbb91b76	-0.0056490256
183	0x3b04b8a6	0.002025166
184	0xbcc721f9	-0.024308192
185	0x3937c30a	0.00017524898
186	0x3ccb98c3	0.024853116
187	0x3ce28d12	0.027655158
188	0x3cfde777	0.03099416
189	0x3d65860d	0.056036044
190	0x3d6753a5	0.056476254
191	0x3d0a63da	0.033786632
192	0x38e6b83c	0.00011001571
193	0x3b95db00	0.004573226
194	0xba826e49	-0.000995108
195	0xbd062ba9	-0.03275648
196	0x3c89d9ae	0.01682743
197	0xbcc3079b	-0.023807338
198	0x3c5c7109	0.013454684
199	0xbd446cc3	-0.047955286
200	0xbbc3f537	-0.0059801596
201	0xbd52e2d5	-0.051485855
202	0x3c858b79	0.016301857
203	0xbb370c29	-0.0027930832
204	0xbcf74a86	-0.030186903
205	0xbd5d4e33	-0.054029655
206	0xbceb926f	-0.028756348
207	0xbc1402b7	-0.00903385
208	0x3d250ba1	0.040294293
209	0xbc7d9724	-0.015477929
210	0x3a993869	0.0011689785
211	0x3c755d9f	0.014975934
212	0x3ce117b4	0.027477123
213	0xbc8dbc20	-0.017301619
214	0x3d3fde4e	0.046842866
215	0xbd3dd2ea	-0.04634372
216	0xbd113ffa	-0.035461403
217	0x3d602ab2	0.054728217
218	0xbc46ae8c	-0.012126576
219	0xbc98fb3b	-0.018674484
220	0x3d30e441	0.04318643
221	0xbd81d189	-0.06338794
222	0xbce325c5	-0.02772797
223	0xbd2727dd	-0.0408095
224	0xbdad4e38	-0.08462185
225	0xbd0c3dff	-0.03423881
226	0x3afab01a	0.0019125969
227	0x3c91ea16	0.017811816
228	0xbd9d0cc8	-0.076684535
229	0x3c324354	0.01088031
230	0xbd5d767c	-0.054068074
231	0x3d89cffb	0.06729122
232	0x3bbfde6d	0.0058553726
233	0xbd04be41	-0.032408003
234	0x3c82ea2a	0.015980799
235	0xbc105c40	-0.008811057
236	0x3bd53082	0.0065060267
237	0xbcd61e27	-0.026137425
238	0xbd2e8fdf	-0.042617675
239	0x3d12222e	0.035677128
240	0x3c20e457	0.009820065
241	0xbcae6e48	-0.02129282
242	0xbd1af9ed	-0.037836004
243	0x3da4ce2a	0.08047135
244	0x3c834629	0.016024666
245	0x3bca1937	0.0061675566
246	0xbd5bf899	-0.053703878
247	0xbc7f9c57	-0.015601239
248	0xbdcb775e	-0.09934877
249	0x3adcadab	0.0016836425
250	0xbcdd293e	-0.026997205
251	0xbc2830aa	-0.010265509
252	0xbd25a828	-0.04044357
253	0xbc1deb70	-0.009638652
254	0x3d115807	0.03548434
255	0x3d100774	0.035163358

bias f4 [2]
0	0x3f102a1e	0.56314266
1	0xbf1d894a	-0.6153761
